Chapter-2/mymodel.pth (torch, 2064 bytes, 3 tensors)

0.weight f4 [8, 2]
0	0x3e18ee94	0.1493476
1	0xbe758eca	-0.23980251
2	0x3e1620a4	0.14660889
3	0xbf154b29	-0.5831781
4	0xbf23b16a	-0.6394259
5	0x3da6e66c	0.08149418
6	0x3b1fbd7a	0.0024374411
7	0x3f56bd5f	0.8388271
8	0xbf1dd5c4	-0.61654305
9	0x3ef00bf0	0.46884108
10	0x3e97bdf5	0.29637113
11	0x3f2474c7	0.6424069
12	0x3ee2d1a9	0.44300583
13	0x3eed7275	0.46376386
14	0x3f2b81e1	0.66995054
15	0xbf297c9b	-0.6620576

0.bias f4 [8]
0	0xbf27f323	-0.6560537
1	0xbf033b72	-0.5126258
2	0x3f22cd0e	0.6359414
3	0xbf08bf97	-0.5341734
4	0x3e816a6a	0.252765
5	0x3e834b05	0.25643173
6	0x3f31d2c0	0.69462204
7	0x3d8f120f	0.06985866

2.weight f4 [1, 8]
0	0xbe90e97d	-0.28303137
1	0xbe616093	-0.22009496
2	0x3db8569f	0.09000897
3	0x3f0f9e66	0.5610107
4	0xbdb70fa3	-0.08938529
5	0x3f41b3f5	0.7566522
6	0x3f41df02	0.7573091
7	0xbeb2d16f	-0.3492541
